{
    "format": "layers-model",
    "generatedBy": "keras v2.15.0",
    "convertedBy": "TensorFlow.js Converter v4.13.0",
    "modelTopology": {
        "keras_version": "2.15.0",
        "backend": "tensorflow",
        "model_config": {
            "class_name": "Functional",
            "config": {
                "name": "model",
                "trainable": true,
                "layers": [
                    {
                        "class_name": "InputLayer",
                        "config": {
                            "batch_input_shape": [null, 128, 128, 2],
                            "dtype": "float32",
                            "sparse": false,
                            "ragged": false,
                            "name": "input_1"
                        },
                        "name": "input_1",
                        "inbound_nodes": []
                    },
                    {
                        "class_name": "Conv2D",
                        "config": {
                            "name": "conv2d",
                            "trainable": true,
                            "dtype": "float32",
                            "filters": 64,
                            "kernel_size": [3, 3],
                            "strides": [1, 1],
                            "padding": "same",
                            "data_format": "channels_last",
                            "dilation_rate": [1, 1],
                            "groups": 1,
                            "activation": "linear",
                            "use_bias": true,
                            "kernel_initializer": {
                                "module": "keras.initializers",
                                "class_name": "GlorotUniform",
                                "config": { "seed": null },
                                "registered_name": null
                            },
                            "bias_initializer": {
                                "module": "keras.initializers",
                                "class_name": "Zeros",
                                "config": {},
                                "registered_name": null
                            },
                            "kernel_regularizer": null,
                            "bias_regularizer": null,
                            "activity_regularizer": null,
                            "kernel_constraint": null,
                            "bias_constraint": null
                        },
                        "name": "conv2d",
                        "inbound_nodes": [[["input_1", 0, 0, {}]]]
                    },
                    {
                        "class_name": "BatchNormalization",
                        "config": {
                            "name": "batch_normalization",
                            "trainable": true,
                            "dtype": "float32",
                            "axis": [3],
                            "momentum": 0.99,
                            "epsilon": 0.001,
                            "center": true,
                            "scale": true,
                            "beta_initializer": {
                                "module": "keras.initializers",
                                "class_name": "Zeros",
                                "config": {},
                                "registered_name": null
                            },
                            "gamma_initializer": {
                                "module": "keras.initializers",
                                "class_name": "Ones",
                                "config": {},
                                "registered_name": null
                            },
                            "moving_mean_initializer": {
                                "module": "keras.initializers",
                                "class_name": "Zeros",
                                "config": {},
                                "registered_name": null
                            },
                            "moving_variance_initializer": {
                                "module": "keras.initializers",
                                "class_name": "Ones",
                                "config": {},
                                "registered_name": null
                            },
                            "beta_regularizer": null,
                            "gamma_regularizer": null,
                            "beta_constraint": null,
                            "gamma_constraint": null
                        },
                        "name": "batch_normalization",
                        "inbound_nodes": [[["conv2d", 0, 0, {}]]]
                    },
                    {
                        "class_name": "Activation",
                        "config": {
                            "name": "activation",
                            "trainable": true,
                            "dtype": "float32",
                            "activation": "relu"
                        },
                        "name": "activation",
                        "inbound_nodes": [[["batch_normalization", 0, 0, {}]]]
                    },
                    {
                        "class_name": "Conv2D",
                        "config": {
                            "name": "conv2d_1",
                            "trainable": true,
                            "dtype": "float32",
                            "filters": 64,
                            "kernel_size": [3, 3],
                            "strides": [1, 1],
                            "padding": "same",
                            "data_format": "channels_last",
                            "dilation_rate": [1, 1],
                            "groups": 1,
                            "activation": "linear",
                            "use_bias": true,
                            "kernel_initializer": {
                                "module": "keras.initializers",
                                "class_name": "GlorotUniform",
                                "config": { "seed": null },
                                "registered_name": null
                            },
                            "bias_initializer": {
                                "module": "keras.initializers",
                                "class_name": "Zeros",
                                "config": {},
                                "registered_name": null
                            },
                            "kernel_regularizer": null,
                            "bias_regularizer": null,
                            "activity_regularizer": null,
                            "kernel_constraint": null,
                            "bias_constraint": null
                        },
                        "name": "conv2d_1",
                        "inbound_nodes": [[["activation", 0, 0, {}]]]
                    },
                    {
                        "class_name": "Conv2D",
                        "config": {
                            "name": "conv2d_2",
                            "trainable": true,
                            "dtype": "float32",
                            "filters": 64,
                            "kernel_size": [1, 1],
                            "strides": [1, 1],
                            "padding": "same",
                            "data_format": "channels_last",
                            "dilation_rate": [1, 1],
                            "groups": 1,
                            "activation": "linear",
                            "use_bias": true,
                            "kernel_initializer": {
                                "module": "keras.initializers",
                                "class_name": "GlorotUniform",
                                "config": { "seed": null },
                                "registered_name": null
                            },
                            "bias_initializer": {
                                "module": "keras.initializers",
                                "class_name": "Zeros",
                                "config": {},
                                "registered_name": null
                            },
                            "kernel_regularizer": null,
                            "bias_regularizer": null,
                            "activity_regularizer": null,
                            "kernel_constraint": null,
                            "bias_constraint": null
                        },
                        "name": "conv2d_2",
                        "inbound_nodes": [[["input_1", 0, 0, {}]]]
                    },
                    {
                        "class_name": "BatchNormalization",
                        "config": {
                            "name": "batch_normalization_1",
                            "trainable": true,
                            "dtype": "float32",
                            "axis": [3],
                            "momentum": 0.99,
                            "epsilon": 0.001,
                            "center": true,
                            "scale": true,
                            "beta_initializer": {
                                "module": "keras.initializers",
                                "class_name": "Zeros",
                                "config": {},
                                "registered_name": null
                            },
                            "gamma_initializer": {
                                "module": "keras.initializers",
                                "class_name": "Ones",
                                "config": {},
                                "registered_name": null
                            },
                            "moving_mean_initializer": {
                                "module": "keras.initializers",
                                "class_name": "Zeros",
                                "config": {},
                                "registered_name": null
                            },
                            "moving_variance_initializer": {
                                "module": "keras.initializers",
                                "class_name": "Ones",
                                "config": {},
                                "registered_name": null
                            },
                            "beta_regularizer": null,
                            "gamma_regularizer": null,
                            "beta_constraint": null,
                            "gamma_constraint": null
                        },
                        "name": "batch_normalization_1",
                        "inbound_nodes": [[["conv2d_1", 0, 0, {}]]]
                    },
                    {
                        "class_name": "BatchNormalization",
                        "config": {
                            "name": "batch_normalization_2",
                            "trainable": true,
                            "dtype": "float32",
                            "axis": [3],
                            "momentum": 0.99,
                            "epsilon": 0.001,
                            "center": true,
                            "scale": true,
                            "beta_initializer": {
                                "module": "keras.initializers",
                                "class_name": "Zeros",
                                "config": {},
                                "registered_name": null
                            },
                            "gamma_initializer": {
                                "module": "keras.initializers",
                                "class_name": "Ones",
                                "config": {},
                                "registered_name": null
                            },
                            "moving_mean_initializer": {
                                "module": "keras.initializers",
                                "class_name": "Zeros",
                                "config": {},
                                "registered_name": null
                            },
                            "moving_variance_initializer": {
                                "module": "keras.initializers",
                                "class_name": "Ones",
                                "config": {},
                                "registered_name": null
                            },
                            "beta_regularizer": null,
                            "gamma_regularizer": null,
                            "beta_constraint": null,
                            "gamma_constraint": null
                        },
                        "name": "batch_normalization_2",
                        "inbound_nodes": [[["conv2d_2", 0, 0, {}]]]
                    },
                    {
                        "class_name": "Add",
                        "config": {
                            "name": "add",
                            "trainable": true,
                            "dtype": "float32"
                        },
                        "name": "add",
                        "inbound_nodes": [
                            [
                                ["batch_normalization_1", 0, 0, {}],
                                ["batch_normalization_2", 0, 0, {}]
                            ]
                        ]
                    },
                    {
                        "class_name": "Activation",
                        "config": {
                            "name": "activation_1",
                            "trainable": true,
                            "dtype": "float32",
                            "activation": "relu"
                        },
                        "name": "activation_1",
                        "inbound_nodes": [[["add", 0, 0, {}]]]
                    },
                    {
                        "class_name": "MaxPooling2D",
                        "config": {
                            "name": "max_pooling2d",
                            "trainable": true,
                            "dtype": "float32",
                            "pool_size": [2, 2],
                            "padding": "valid",
                            "strides": [2, 2],
                            "data_format": "channels_last"
                        },
                        "name": "max_pooling2d",
                        "inbound_nodes": [[["activation_1", 0, 0, {}]]]
                    },
                    {
                        "class_name": "Conv2D",
                        "config": {
                            "name": "conv2d_3",
                            "trainable": true,
                            "dtype": "float32",
                            "filters": 128,
                            "kernel_size": [3, 3],
                            "strides": [1, 1],
                            "padding": "same",
                            "data_format": "channels_last",
                            "dilation_rate": [1, 1],
                            "groups": 1,
                            "activation": "linear",
                            "use_bias": true,
                            "kernel_initializer": {
                                "module": "keras.initializers",
                                "class_name": "GlorotUniform",
                                "config": { "seed": null },
                                "registered_name": null
                            },
                            "bias_initializer": {
                                "module": "keras.initializers",
                                "class_name": "Zeros",
                                "config": {},
                                "registered_name": null
                            },
                            "kernel_regularizer": null,
                            "bias_regularizer": null,
                            "activity_regularizer": null,
                            "kernel_constraint": null,
                            "bias_constraint": null
                        },
                        "name": "conv2d_3",
                        "inbound_nodes": [[["max_pooling2d", 0, 0, {}]]]
                    },
                    {
                        "class_name": "BatchNormalization",
                        "config": {
                            "name": "batch_normalization_3",
                            "trainable": true,
                            "dtype": "float32",
                            "axis": [3],
                            "momentum": 0.99,
                            "epsilon": 0.001,
                            "center": true,
                            "scale": true,
                            "beta_initializer": {
                                "module": "keras.initializers",
                                "class_name": "Zeros",
                                "config": {},
                                "registered_name": null
                            },
                            "gamma_initializer": {
                                "module": "keras.initializers",
                                "class_name": "Ones",
                                "config": {},
                                "registered_name": null
                            },
                            "moving_mean_initializer": {
                                "module": "keras.initializers",
                                "class_name": "Zeros",
                                "config": {},
                                "registered_name": null
                            },
                            "moving_variance_initializer": {
                                "module": "keras.initializers",
                                "class_name": "Ones",
                                "config": {},
                                "registered_name": null
                            },
                            "beta_regularizer": null,
                            "gamma_regularizer": null,
                            "beta_constraint": null,
                            "gamma_constraint": null
                        },
                        "name": "batch_normalization_3",
                        "inbound_nodes": [[["conv2d_3", 0, 0, {}]]]
                    },
                    {
                        "class_name": "Activation",
                        "config": {
                            "name": "activation_2",
                            "trainable": true,
                            "dtype": "float32",
                            "activation": "relu"
                        },
                        "name": "activation_2",
                        "inbound_nodes": [[["batch_normalization_3", 0, 0, {}]]]
                    },
                    {
                        "class_name": "Conv2D",
                        "config": {
                            "name": "conv2d_4",
                            "trainable": true,
                            "dtype": "float32",
                            "filters": 128,
                            "kernel_size": [3, 3],
                            "strides": [1, 1],
                            "padding": "same",
                            "data_format": "channels_last",
                            "dilation_rate": [1, 1],
                            "groups": 1,
                            "activation": "linear",
                            "use_bias": true,
                            "kernel_initializer": {
                                "module": "keras.initializers",
                                "class_name": "GlorotUniform",
                                "config": { "seed": null },
                                "registered_name": null
                            },
                            "bias_initializer": {
                                "module": "keras.initializers",
                                "class_name": "Zeros",
                                "config": {},
                                "registered_name": null
                            },
                            "kernel_regularizer": null,
                            "bias_regularizer": null,
                            "activity_regularizer": null,
                            "kernel_constraint": null,
                            "bias_constraint": null
                        },
                        "name": "conv2d_4",
                        "inbound_nodes": [[["activation_2", 0, 0, {}]]]
                    },
                    {
                        "class_name": "Conv2D",
                        "config": {
                            "name": "conv2d_5",
                            "trainable": true,
                            "dtype": "float32",
                            "filters": 128,
                            "kernel_size": [1, 1],
                            "strides": [1, 1],
                            "padding": "same",
                            "data_format": "channels_last",
                            "dilation_rate": [1, 1],
                            "groups": 1,
                            "activation": "linear",
                            "use_bias": true,
                            "kernel_initializer": {
                                "module": "keras.initializers",
                                "class_name": "GlorotUniform",
                                "config": { "seed": null },
                                "registered_name": null
                            },
                            "bias_initializer": {
                                "module": "keras.initializers",
                                "class_name": "Zeros",
                                "config": {},
                                "registered_name": null
                            },
                            "kernel_regularizer": null,
                            "bias_regularizer": null,
                            "activity_regularizer": null,
                            "kernel_constraint": null,
                            "bias_constraint": null
                        },
                        "name": "conv2d_5",
                        "inbound_nodes": [[["max_pooling2d", 0, 0, {}]]]
                    },
                    {
                        "class_name": "BatchNormalization",
                        "config": {
                            "name": "batch_normalization_4",
                            "trainable": true,
                            "dtype": "float32",
                            "axis": [3],
                            "momentum": 0.99,
                            "epsilon": 0.001,
                            "center": true,
                            "scale": true,
                            "beta_initializer": {
                                "module": "keras.initializers",
                                "class_name": "Zeros",
                                "config": {},
                                "registered_name": null
                            },
                            "gamma_initializer": {
                                "module": "keras.initializers",
                                "class_name": "Ones",
                                "config": {},
                                "registered_name": null
                            },
                            "moving_mean_initializer": {
                                "module": "keras.initializers",
                                "class_name": "Zeros",
                                "config": {},
                                "registered_name": null
                            },
                            "moving_variance_initializer": {
                                "module": "keras.initializers",
                                "class_name": "Ones",
                                "config": {},
                                "registered_name": null
                            },
                            "beta_regularizer": null,
                            "gamma_regularizer": null,
                            "beta_constraint": null,
                            "gamma_constraint": null
                        },
                        "name": "batch_normalization_4",
                        "inbound_nodes": [[["conv2d_4", 0, 0, {}]]]
                    },
                    {
                        "class_name": "BatchNormalization",
                        "config": {
                            "name": "batch_normalization_5",
                            "trainable": true,
                            "dtype": "float32",
                            "axis": [3],
                            "momentum": 0.99,
                            "epsilon": 0.001,
                            "center": true,
                            "scale": true,
                            "beta_initializer": {
                                "module": "keras.initializers",
                                "class_name": "Zeros",
                                "config": {},
                                "registered_name": null
                            },
                            "gamma_initializer": {
                                "module": "keras.initializers",
                                "class_name": "Ones",
                                "config": {},
                                "registered_name": null
                            },
                            "moving_mean_initializer": {
                                "module": "keras.initializers",
                                "class_name": "Zeros",
                                "config": {},
                                "registered_name": null
                            },
                            "moving_variance_initializer": {
                                "module": "keras.initializers",
                                "class_name": "Ones",
                                "config": {},
                                "registered_name": null
                            },
                            "beta_regularizer": null,
                            "gamma_regularizer": null,
                            "beta_constraint": null,
                            "gamma_constraint": null
                        },
                        "name": "batch_normalization_5",
                        "inbound_nodes": [[["conv2d_5", 0, 0, {}]]]
                    },
                    {
                        "class_name": "Add",
                        "config": {
                            "name": "add_1",
                            "trainable": true,
                            "dtype": "float32"
                        },
                        "name": "add_1",
                        "inbound_nodes": [
                            [
                                ["batch_normalization_4", 0, 0, {}],
                                ["batch_normalization_5", 0, 0, {}]
                            ]
                        ]
                    },
                    {
                        "class_name": "Activation",
                        "config": {
                            "name": "activation_3",
                            "trainable": true,
                            "dtype": "float32",
                            "activation": "relu"
                        },
                        "name": "activation_3",
                        "inbound_nodes": [[["add_1", 0, 0, {}]]]
                    },
                    {
                        "class_name": "MaxPooling2D",
                        "config": {
                            "name": "max_pooling2d_1",
                            "trainable": true,
                            "dtype": "float32",
                            "pool_size": [2, 2],
                            "padding": "valid",
                            "strides": [2, 2],
                            "data_format": "channels_last"
                        },
                        "name": "max_pooling2d_1",
                        "inbound_nodes": [[["activation_3", 0, 0, {}]]]
                    },
                    {
                        "class_name": "Conv2D",
                        "config": {
                            "name": "conv2d_6",
                            "trainable": true,
                            "dtype": "float32",
                            "filters": 256,
                            "kernel_size": [3, 3],
                            "strides": [1, 1],
                            "padding": "same",
                            "data_format": "channels_last",
                            "dilation_rate": [1, 1],
                            "groups": 1,
                            "activation": "linear",
                            "use_bias": true,
                            "kernel_initializer": {
                                "module": "keras.initializers",
                                "class_name": "GlorotUniform",
                                "config": { "seed": null },
                                "registered_name": null
                            },
                            "bias_initializer": {
                                "module": "keras.initializers",
                                "class_name": "Zeros",
                                "config": {},
                                "registered_name": null
                            },
                            "kernel_regularizer": null,
                            "bias_regularizer": null,
                            "activity_regularizer": null,
                            "kernel_constraint": null,
                            "bias_constraint": null
                        },
                        "name": "conv2d_6",
                        "inbound_nodes": [[["max_pooling2d_1", 0, 0, {}]]]
                    },
                    {
                        "class_name": "BatchNormalization",
                        "config": {
                            "name": "batch_normalization_6",
                            "trainable": true,
                            "dtype": "float32",
                            "axis": [3],
                            "momentum": 0.99,
                            "epsilon": 0.001,
                            "center": true,
                            "scale": true,
                            "beta_initializer": {
                                "module": "keras.initializers",
                                "class_name": "Zeros",
                                "config": {},
                                "registered_name": null
                            },
                            "gamma_initializer": {
                                "module": "keras.initializers",
                                "class_name": "Ones",
                                "config": {},
                                "registered_name": null
                            },
                            "moving_mean_initializer": {
                                "module": "keras.initializers",
                                "class_name": "Zeros",
                                "config": {},
                                "registered_name": null
                            },
                            "moving_variance_initializer": {
                                "module": "keras.initializers",
                                "class_name": "Ones",
                                "config": {},
                                "registered_name": null
                            },
                            "beta_regularizer": null,
                            "gamma_regularizer": null,
                            "beta_constraint": null,
                            "gamma_constraint": null
                        },
                        "name": "batch_normalization_6",
                        "inbound_nodes": [[["conv2d_6", 0, 0, {}]]]
                    },
                    {
                        "class_name": "Activation",
                        "config": {
                            "name": "activation_4",
                            "trainable": true,
                            "dtype": "float32",
                            "activation": "relu"
                        },
                        "name": "activation_4",
                        "inbound_nodes": [[["batch_normalization_6", 0, 0, {}]]]
                    },
                    {
                        "class_name": "Conv2D",
                        "config": {
                            "name": "conv2d_7",
                            "trainable": true,
                            "dtype": "float32",
                            "filters": 256,
                            "kernel_size": [3, 3],
                            "strides": [1, 1],
                            "padding": "same",
                            "data_format": "channels_last",
                            "dilation_rate": [1, 1],
                            "groups": 1,
                            "activation": "linear",
                            "use_bias": true,
                            "kernel_initializer": {
                                "module": "keras.initializers",
                                "class_name": "GlorotUniform",
                                "config": { "seed": null },
                                "registered_name": null
                            },
                            "bias_initializer": {
                                "module": "keras.initializers",
                                "class_name": "Zeros",
                                "config": {},
                                "registered_name": null
                            },
                            "kernel_regularizer": null,
                            "bias_regularizer": null,
                            "activity_regularizer": null,
                            "kernel_constraint": null,
                            "bias_constraint": null
                        },
                        "name": "conv2d_7",
                        "inbound_nodes": [[["activation_4", 0, 0, {}]]]
                    },
                    {
                        "class_name": "Conv2D",
                        "config": {
                            "name": "conv2d_8",
                            "trainable": true,
                            "dtype": "float32",
                            "filters": 256,
                            "kernel_size": [1, 1],
                            "strides": [1, 1],
                            "padding": "same",
                            "data_format": "channels_last",
                            "dilation_rate": [1, 1],
                            "groups": 1,
                            "activation": "linear",
                            "use_bias": true,
                            "kernel_initializer": {
                                "module": "keras.initializers",
                                "class_name": "GlorotUniform",
                                "config": { "seed": null },
                                "registered_name": null
                            },
                            "bias_initializer": {
                                "module": "keras.initializers",
                                "class_name": "Zeros",
                                "config": {},
                                "registered_name": null
                            },
                            "kernel_regularizer": null,
                            "bias_regularizer": null,
                            "activity_regularizer": null,
                            "kernel_constraint": null,
                            "bias_constraint": null
                        },
                        "name": "conv2d_8",
                        "inbound_nodes": [[["max_pooling2d_1", 0, 0, {}]]]
                    },
                    {
                        "class_name": "BatchNormalization",
                        "config": {
                            "name": "batch_normalization_7",
                            "trainable": true,
                            "dtype": "float32",
                            "axis": [3],
                            "momentum": 0.99,
                            "epsilon": 0.001,
                            "center": true,
                            "scale": true,
                            "beta_initializer": {
                                "module": "keras.initializers",
                                "class_name": "Zeros",
                                "config": {},
                                "registered_name": null
                            },
                            "gamma_initializer": {
                                "module": "keras.initializers",
                                "class_name": "Ones",
                                "config": {},
                                "registered_name": null
                            },
                            "moving_mean_initializer": {
                                "module": "keras.initializers",
                                "class_name": "Zeros",
                                "config": {},
                                "registered_name": null
                            },
                            "moving_variance_initializer": {
                                "module": "keras.initializers",
                                "class_name": "Ones",
                                "config": {},
                                "registered_name": null
                            },
                            "beta_regularizer": null,
                            "gamma_regularizer": null,
                            "beta_constraint": null,
                            "gamma_constraint": null
                        },
                        "name": "batch_normalization_7",
                        "inbound_nodes": [[["conv2d_7", 0, 0, {}]]]
                    },
                    {
                        "class_name": "BatchNormalization",
                        "config": {
                            "name": "batch_normalization_8",
                            "trainable": true,
                            "dtype": "float32",
                            "axis": [3],
                            "momentum": 0.99,
                            "epsilon": 0.001,
                            "center": true,
                            "scale": true,
                            "beta_initializer": {
                                "module": "keras.initializers",
                                "class_name": "Zeros",
                                "config": {},
                                "registered_name": null
                            },
                            "gamma_initializer": {
                                "module": "keras.initializers",
                                "class_name": "Ones",
                                "config": {},
                                "registered_name": null
                            },
                            "moving_mean_initializer": {
                                "module": "keras.initializers",
                                "class_name": "Zeros",
                                "config": {},
                                "registered_name": null
                            },
                            "moving_variance_initializer": {
                                "module": "keras.initializers",
                                "class_name": "Ones",
                                "config": {},
                                "registered_name": null
                            },
                            "beta_regularizer": null,
                            "gamma_regularizer": null,
                            "beta_constraint": null,
                            "gamma_constraint": null
                        },
                        "name": "batch_normalization_8",
                        "inbound_nodes": [[["conv2d_8", 0, 0, {}]]]
                    },
                    {
                        "class_name": "Add",
                        "config": {
                            "name": "add_2",
                            "trainable": true,
                            "dtype": "float32"
                        },
                        "name": "add_2",
                        "inbound_nodes": [
                            [
                                ["batch_normalization_7", 0, 0, {}],
                                ["batch_normalization_8", 0, 0, {}]
                            ]
                        ]
                    },
                    {
                        "class_name": "Activation",
                        "config": {
                            "name": "activation_5",
                            "trainable": true,
                            "dtype": "float32",
                            "activation": "relu"
                        },
                        "name": "activation_5",
                        "inbound_nodes": [[["add_2", 0, 0, {}]]]
                    },
                    {
                        "class_name": "MaxPooling2D",
                        "config": {
                            "name": "max_pooling2d_2",
                            "trainable": true,
                            "dtype": "float32",
                            "pool_size": [2, 2],
                            "padding": "valid",
                            "strides": [2, 2],
                            "data_format": "channels_last"
                        },
                        "name": "max_pooling2d_2",
                        "inbound_nodes": [[["activation_5", 0, 0, {}]]]
                    },
                    {
                        "class_name": "Conv2D",
                        "config": {
                            "name": "conv2d_9",
                            "trainable": true,
                            "dtype": "float32",
                            "filters": 512,
                            "kernel_size": [3, 3],
                            "strides": [1, 1],
                            "padding": "same",
                            "data_format": "channels_last",
                            "dilation_rate": [1, 1],
                            "groups": 1,
                            "activation": "linear",
                            "use_bias": true,
                            "kernel_initializer": {
                                "module": "keras.initializers",
                                "class_name": "GlorotUniform",
                                "config": { "seed": null },
                                "registered_name": null
                            },
                            "bias_initializer": {
                                "module": "keras.initializers",
                                "class_name": "Zeros",
                                "config": {},
                                "registered_name": null
                            },
                            "kernel_regularizer": null,
                            "bias_regularizer": null,
                            "activity_regularizer": null,
                            "kernel_constraint": null,
                            "bias_constraint": null
                        },
                        "name": "conv2d_9",
                        "inbound_nodes": [[["max_pooling2d_2", 0, 0, {}]]]
                    },
                    {
                        "class_name": "BatchNormalization",
                        "config": {
                            "name": "batch_normalization_9",
                            "trainable": true,
                            "dtype": "float32",
                            "axis": [3],
                            "momentum": 0.99,
                            "epsilon": 0.001,
                            "center": true,
                            "scale": true,
                            "beta_initializer": {
                                "module": "keras.initializers",
                                "class_name": "Zeros",
                                "config": {},
                                "registered_name": null
                            },
                            "gamma_initializer": {
                                "module": "keras.initializers",
                                "class_name": "Ones",
                                "config": {},
                                "registered_name": null
                            },
                            "moving_mean_initializer": {
                                "module": "keras.initializers",
                                "class_name": "Zeros",
                                "config": {},
                                "registered_name": null
                            },
                            "moving_variance_initializer": {
                                "module": "keras.initializers",
                                "class_name": "Ones",
                                "config": {},
                                "registered_name": null
                            },
                            "beta_regularizer": null,
                            "gamma_regularizer": null,
                            "beta_constraint": null,
                            "gamma_constraint": null
                        },
                        "name": "batch_normalization_9",
                        "inbound_nodes": [[["conv2d_9", 0, 0, {}]]]
                    },
                    {
                        "class_name": "Activation",
                        "config": {
                            "name": "activation_6",
                            "trainable": true,
                            "dtype": "float32",
                            "activation": "relu"
                        },
                        "name": "activation_6",
                        "inbound_nodes": [[["batch_normalization_9", 0, 0, {}]]]
                    },
                    {
                        "class_name": "Conv2D",
                        "config": {
                            "name": "conv2d_10",
                            "trainable": true,
                            "dtype": "float32",
                            "filters": 512,
                            "kernel_size": [3, 3],
                            "strides": [1, 1],
                            "padding": "same",
                            "data_format": "channels_last",
                            "dilation_rate": [1, 1],
                            "groups": 1,
                            "activation": "linear",
                            "use_bias": true,
                            "kernel_initializer": {
                                "module": "keras.initializers",
                                "class_name": "GlorotUniform",
                                "config": { "seed": null },
                                "registered_name": null
                            },
                            "bias_initializer": {
                                "module": "keras.initializers",
                                "class_name": "Zeros",
                                "config": {},
                                "registered_name": null
                            },
                            "kernel_regularizer": null,
                            "bias_regularizer": null,
                            "activity_regularizer": null,
                            "kernel_constraint": null,
                            "bias_constraint": null
                        },
                        "name": "conv2d_10",
                        "inbound_nodes": [[["activation_6", 0, 0, {}]]]
                    },
                    {
                        "class_name": "Conv2D",
                        "config": {
                            "name": "conv2d_11",
                            "trainable": true,
                            "dtype": "float32",
                            "filters": 512,
                            "kernel_size": [1, 1],
                            "strides": [1, 1],
                            "padding": "same",
                            "data_format": "channels_last",
                            "dilation_rate": [1, 1],
                            "groups": 1,
                            "activation": "linear",
                            "use_bias": true,
                            "kernel_initializer": {
                                "module": "keras.initializers",
                                "class_name": "GlorotUniform",
                                "config": { "seed": null },
                                "registered_name": null
                            },
                            "bias_initializer": {
                                "module": "keras.initializers",
                                "class_name": "Zeros",
                                "config": {},
                                "registered_name": null
                            },
                            "kernel_regularizer": null,
                            "bias_regularizer": null,
                            "activity_regularizer": null,
                            "kernel_constraint": null,
                            "bias_constraint": null
                        },
                        "name": "conv2d_11",
                        "inbound_nodes": [[["max_pooling2d_2", 0, 0, {}]]]
                    },
                    {
                        "class_name": "BatchNormalization",
                        "config": {
                            "name": "batch_normalization_10",
                            "trainable": true,
                            "dtype": "float32",
                            "axis": [3],
                            "momentum": 0.99,
                            "epsilon": 0.001,
                            "center": true,
                            "scale": true,
                            "beta_initializer": {
                                "module": "keras.initializers",
                                "class_name": "Zeros",
                                "config": {},
                                "registered_name": null
                            },
                            "gamma_initializer": {
                                "module": "keras.initializers",
                                "class_name": "Ones",
                                "config": {},
                                "registered_name": null
                            },
                            "moving_mean_initializer": {
                                "module": "keras.initializers",
                                "class_name": "Zeros",
                                "config": {},
                                "registered_name": null
                            },
                            "moving_variance_initializer": {
                                "module": "keras.initializers",
                                "class_name": "Ones",
                                "config": {},
                                "registered_name": null
                            },
                            "beta_regularizer": null,
                            "gamma_regularizer": null,
                            "beta_constraint": null,
                            "gamma_constraint": null
                        },
                        "name": "batch_normalization_10",
                        "inbound_nodes": [[["conv2d_10", 0, 0, {}]]]
                    },
                    {
                        "class_name": "BatchNormalization",
                        "config": {
                            "name": "batch_normalization_11",
                            "trainable": true,
                            "dtype": "float32",
                            "axis": [3],
                            "momentum": 0.99,
                            "epsilon": 0.001,
                            "center": true,
                            "scale": true,
                            "beta_initializer": {
                                "module": "keras.initializers",
                                "class_name": "Zeros",
                                "config": {},
                                "registered_name": null
                            },
                            "gamma_initializer": {
                                "module": "keras.initializers",
                                "class_name": "Ones",
                                "config": {},
                                "registered_name": null
                            },
                            "moving_mean_initializer": {
                                "module": "keras.initializers",
                                "class_name": "Zeros",
                                "config": {},
                                "registered_name": null
                            },
                            "moving_variance_initializer": {
                                "module": "keras.initializers",
                                "class_name": "Ones",
                                "config": {},
                                "registered_name": null
                            },
                            "beta_regularizer": null,
                            "gamma_regularizer": null,
                            "beta_constraint": null,
                            "gamma_constraint": null
                        },
                        "name": "batch_normalization_11",
                        "inbound_nodes": [[["conv2d_11", 0, 0, {}]]]
                    },
                    {
                        "class_name": "Add",
                        "config": {
                            "name": "add_3",
                            "trainable": true,
                            "dtype": "float32"
                        },
                        "name": "add_3",
                        "inbound_nodes": [
                            [
                                ["batch_normalization_10", 0, 0, {}],
                                ["batch_normalization_11", 0, 0, {}]
                            ]
                        ]
                    },
                    {
                        "class_name": "Activation",
                        "config": {
                            "name": "activation_7",
                            "trainable": true,
                            "dtype": "float32",
                            "activation": "relu"
                        },
                        "name": "activation_7",
                        "inbound_nodes": [[["add_3", 0, 0, {}]]]
                    },
                    {
                        "class_name": "MaxPooling2D",
                        "config": {
                            "name": "max_pooling2d_3",
                            "trainable": true,
                            "dtype": "float32",
                            "pool_size": [2, 2],
                            "padding": "valid",
                            "strides": [2, 2],
                            "data_format": "channels_last"
                        },
                        "name": "max_pooling2d_3",
                        "inbound_nodes": [[["activation_7", 0, 0, {}]]]
                    },
                    {
                        "class_name": "Conv2D",
                        "config": {
                            "name": "conv2d_12",
                            "trainable": true,
                            "dtype": "float32",
                            "filters": 1024,
                            "kernel_size": [3, 3],
                            "strides": [1, 1],
                            "padding": "same",
                            "data_format": "channels_last",
                            "dilation_rate": [1, 1],
                            "groups": 1,
                            "activation": "linear",
                            "use_bias": true,
                            "kernel_initializer": {
                                "module": "keras.initializers",
                                "class_name": "GlorotUniform",
                                "config": { "seed": null },
                                "registered_name": null
                            },
                            "bias_initializer": {
                                "module": "keras.initializers",
                                "class_name": "Zeros",
                                "config": {},
                                "registered_name": null
                            },
                            "kernel_regularizer": null,
                            "bias_regularizer": null,
                            "activity_regularizer": null,
                            "kernel_constraint": null,
                            "bias_constraint": null
                        },
                        "name": "conv2d_12",
                        "inbound_nodes": [[["max_pooling2d_3", 0, 0, {}]]]
                    },
                    {
                        "class_name": "BatchNormalization",
                        "config": {
                            "name": "batch_normalization_12",
                            "trainable": true,
                            "dtype": "float32",
                            "axis": [3],
                            "momentum": 0.99,
                            "epsilon": 0.001,
                            "center": true,
                            "scale": true,
                            "beta_initializer": {
                                "module": "keras.initializers",
                                "class_name": "Zeros",
                                "config": {},
                                "registered_name": null
                            },
                            "gamma_initializer": {
                                "module": "keras.initializers",
                                "class_name": "Ones",
                                "config": {},
                                "registered_name": null
                            },
                            "moving_mean_initializer": {
                                "module": "keras.initializers",
                                "class_name": "Zeros",
                                "config": {},
                                "registered_name": null
                            },
                            "moving_variance_initializer": {
                                "module": "keras.initializers",
                                "class_name": "Ones",
                                "config": {},
                                "registered_name": null
                            },
                            "beta_regularizer": null,
                            "gamma_regularizer": null,
                            "beta_constraint": null,
                            "gamma_constraint": null
                        },
                        "name": "batch_normalization_12",
                        "inbound_nodes": [[["conv2d_12", 0, 0, {}]]]
                    },
                    {
                        "class_name": "Activation",
                        "config": {
                            "name": "activation_8",
                            "trainable": true,
                            "dtype": "float32",
                            "activation": "relu"
                        },
                        "name": "activation_8",
                        "inbound_nodes": [
                            [["batch_normalization_12", 0, 0, {}]]
                        ]
                    },
                    {
                        "class_name": "Conv2D",
                        "config": {
                            "name": "conv2d_13",
                            "trainable": true,
                            "dtype": "float32",
                            "filters": 1024,
                            "kernel_size": [3, 3],
                            "strides": [1, 1],
                            "padding": "same",
                            "data_format": "channels_last",
                            "dilation_rate": [1, 1],
                            "groups": 1,
                            "activation": "linear",
                            "use_bias": true,
                            "kernel_initializer": {
                                "module": "keras.initializers",
                                "class_name": "GlorotUniform",
                                "config": { "seed": null },
                                "registered_name": null
                            },
                            "bias_initializer": {
                                "module": "keras.initializers",
                                "class_name": "Zeros",
                                "config": {},
                                "registered_name": null
                            },
                            "kernel_regularizer": null,
                            "bias_regularizer": null,
                            "activity_regularizer": null,
                            "kernel_constraint": null,
                            "bias_constraint": null
                        },
                        "name": "conv2d_13",
                        "inbound_nodes": [[["activation_8", 0, 0, {}]]]
                    },
                    {
                        "class_name": "Conv2D",
                        "config": {
                            "name": "conv2d_14",
                            "trainable": true,
                            "dtype": "float32",
                            "filters": 1024,
                            "kernel_size": [1, 1],
                            "strides": [1, 1],
                            "padding": "same",
                            "data_format": "channels_last",
                            "dilation_rate": [1, 1],
                            "groups": 1,
                            "activation": "linear",
                            "use_bias": true,
                            "kernel_initializer": {
                                "module": "keras.initializers",
                                "class_name": "GlorotUniform",
                                "config": { "seed": null },
                                "registered_name": null
                            },
                            "bias_initializer": {
                                "module": "keras.initializers",
                                "class_name": "Zeros",
                                "config": {},
                                "registered_name": null
                            },
                            "kernel_regularizer": null,
                            "bias_regularizer": null,
                            "activity_regularizer": null,
                            "kernel_constraint": null,
                            "bias_constraint": null
                        },
                        "name": "conv2d_14",
                        "inbound_nodes": [[["max_pooling2d_3", 0, 0, {}]]]
                    },
                    {
                        "class_name": "BatchNormalization",
                        "config": {
                            "name": "batch_normalization_13",
                            "trainable": true,
                            "dtype": "float32",
                            "axis": [3],
                            "momentum": 0.99,
                            "epsilon": 0.001,
                            "center": true,
                            "scale": true,
                            "beta_initializer": {
                                "module": "keras.initializers",
                                "class_name": "Zeros",
                                "config": {},
                                "registered_name": null
                            },
                            "gamma_initializer": {
                                "module": "keras.initializers",
                                "class_name": "Ones",
                                "config": {},
                                "registered_name": null
                            },
                            "moving_mean_initializer": {
                                "module": "keras.initializers",
                                "class_name": "Zeros",
                                "config": {},
                                "registered_name": null
                            },
                            "moving_variance_initializer": {
                                "module": "keras.initializers",
                                "class_name": "Ones",
                                "config": {},
                                "registered_name": null
                            },
                            "beta_regularizer": null,
                            "gamma_regularizer": null,
                            "beta_constraint": null,
                            "gamma_constraint": null
                        },
                        "name": "batch_normalization_13",
                        "inbound_nodes": [[["conv2d_13", 0, 0, {}]]]
                    },
                    {
                        "class_name": "BatchNormalization",
                        "config": {
                            "name": "batch_normalization_14",
                            "trainable": true,
                            "dtype": "float32",
                            "axis": [3],
                            "momentum": 0.99,
                            "epsilon": 0.001,
                            "center": true,
                            "scale": true,
                            "beta_initializer": {
                                "module": "keras.initializers",
                                "class_name": "Zeros",
                                "config": {},
                                "registered_name": null
                            },
                            "gamma_initializer": {
                                "module": "keras.initializers",
                                "class_name": "Ones",
                                "config": {},
                                "registered_name": null
                            },
                            "moving_mean_initializer": {
                                "module": "keras.initializers",
                                "class_name": "Zeros",
                                "config": {},
                                "registered_name": null
                            },
                            "moving_variance_initializer": {
                                "module": "keras.initializers",
                                "class_name": "Ones",
                                "config": {},
                                "registered_name": null
                            },
                            "beta_regularizer": null,
                            "gamma_regularizer": null,
                            "beta_constraint": null,
                            "gamma_constraint": null
                        },
                        "name": "batch_normalization_14",
                        "inbound_nodes": [[["conv2d_14", 0, 0, {}]]]
                    },
                    {
                        "class_name": "Add",
                        "config": {
                            "name": "add_4",
                            "trainable": true,
                            "dtype": "float32"
                        },
                        "name": "add_4",
                        "inbound_nodes": [
                            [
                                ["batch_normalization_13", 0, 0, {}],
                                ["batch_normalization_14", 0, 0, {}]
                            ]
                        ]
                    },
                    {
                        "class_name": "Activation",
                        "config": {
                            "name": "activation_9",
                            "trainable": true,
                            "dtype": "float32",
                            "activation": "relu"
                        },
                        "name": "activation_9",
                        "inbound_nodes": [[["add_4", 0, 0, {}]]]
                    },
                    {
                        "class_name": "UpSampling2D",
                        "config": {
                            "name": "up_sampling2d",
                            "trainable": true,
                            "dtype": "float32",
                            "size": [2, 2],
                            "data_format": "channels_last",
                            "interpolation": "nearest"
                        },
                        "name": "up_sampling2d",
                        "inbound_nodes": [[["activation_9", 0, 0, {}]]]
                    },
                    {
                        "class_name": "Concatenate",
                        "config": {
                            "name": "concatenate",
                            "trainable": true,
                            "dtype": "float32",
                            "axis": -1
                        },
                        "name": "concatenate",
                        "inbound_nodes": [
                            [
                                ["up_sampling2d", 0, 0, {}],
                                ["activation_7", 0, 0, {}]
                            ]
                        ]
                    },
                    {
                        "class_name": "Conv2D",
                        "config": {
                            "name": "conv2d_15",
                            "trainable": true,
                            "dtype": "float32",
                            "filters": 512,
                            "kernel_size": [3, 3],
                            "strides": [1, 1],
                            "padding": "same",
                            "data_format": "channels_last",
                            "dilation_rate": [1, 1],
                            "groups": 1,
                            "activation": "relu",
                            "use_bias": true,
                            "kernel_initializer": {
                                "module": "keras.initializers",
                                "class_name": "GlorotUniform",
                                "config": { "seed": null },
                                "registered_name": null
                            },
                            "bias_initializer": {
                                "module": "keras.initializers",
                                "class_name": "Zeros",
                                "config": {},
                                "registered_name": null
                            },
                            "kernel_regularizer": {
                                "module": "keras.regularizers",
                                "class_name": "L2",
                                "config": { "l2": 9.999999747378752e-5 },
                                "registered_name": null
                            },
                            "bias_regularizer": null,
                            "activity_regularizer": null,
                            "kernel_constraint": null,
                            "bias_constraint": null
                        },
                        "name": "conv2d_15",
                        "inbound_nodes": [[["concatenate", 0, 0, {}]]]
                    },
                    {
                        "class_name": "Conv2D",
                        "config": {
                            "name": "conv2d_16",
                            "trainable": true,
                            "dtype": "float32",
                            "filters": 512,
                            "kernel_size": [3, 3],
                            "strides": [1, 1],
                            "padding": "same",
                            "data_format": "channels_last",
                            "dilation_rate": [1, 1],
                            "groups": 1,
                            "activation": "relu",
                            "use_bias": true,
                            "kernel_initializer": {
                                "module": "keras.initializers",
                                "class_name": "GlorotUniform",
                                "config": { "seed": null },
                                "registered_name": null
                            },
                            "bias_initializer": {
                                "module": "keras.initializers",
                                "class_name": "Zeros",
                                "config": {},
                                "registered_name": null
                            },
                            "kernel_regularizer": {
                                "module": "keras.regularizers",
                                "class_name": "L2",
                                "config": { "l2": 9.999999747378752e-5 },
                                "registered_name": null
                            },
                            "bias_regularizer": null,
                            "activity_regularizer": null,
                            "kernel_constraint": null,
                            "bias_constraint": null
                        },
                        "name": "conv2d_16",
                        "inbound_nodes": [[["conv2d_15", 0, 0, {}]]]
                    },
                    {
                        "class_name": "UpSampling2D",
                        "config": {
                            "name": "up_sampling2d_1",
                            "trainable": true,
                            "dtype": "float32",
                            "size": [2, 2],
                            "data_format": "channels_last",
                            "interpolation": "nearest"
                        },
                        "name": "up_sampling2d_1",
                        "inbound_nodes": [[["conv2d_16", 0, 0, {}]]]
                    },
                    {
                        "class_name": "Concatenate",
                        "config": {
                            "name": "concatenate_1",
                            "trainable": true,
                            "dtype": "float32",
                            "axis": -1
                        },
                        "name": "concatenate_1",
                        "inbound_nodes": [
                            [
                                ["up_sampling2d_1", 0, 0, {}],
                                ["activation_5", 0, 0, {}]
                            ]
                        ]
                    },
                    {
                        "class_name": "Conv2D",
                        "config": {
                            "name": "conv2d_17",
                            "trainable": true,
                            "dtype": "float32",
                            "filters": 256,
                            "kernel_size": [3, 3],
                            "strides": [1, 1],
                            "padding": "same",
                            "data_format": "channels_last",
                            "dilation_rate": [1, 1],
                            "groups": 1,
                            "activation": "relu",
                            "use_bias": true,
                            "kernel_initializer": {
                                "module": "keras.initializers",
                                "class_name": "GlorotUniform",
                                "config": { "seed": null },
                                "registered_name": null
                            },
                            "bias_initializer": {
                                "module": "keras.initializers",
                                "class_name": "Zeros",
                                "config": {},
                                "registered_name": null
                            },
                            "kernel_regularizer": {
                                "module": "keras.regularizers",
                                "class_name": "L2",
                                "config": { "l2": 9.999999747378752e-5 },
                                "registered_name": null
                            },
                            "bias_regularizer": null,
                            "activity_regularizer": null,
                            "kernel_constraint": null,
                            "bias_constraint": null
                        },
                        "name": "conv2d_17",
                        "inbound_nodes": [[["concatenate_1", 0, 0, {}]]]
                    },
                    {
                        "class_name": "Conv2D",
                        "config": {
                            "name": "conv2d_18",
                            "trainable": true,
                            "dtype": "float32",
                            "filters": 256,
                            "kernel_size": [3, 3],
                            "strides": [1, 1],
                            "padding": "same",
                            "data_format": "channels_last",
                            "dilation_rate": [1, 1],
                            "groups": 1,
                            "activation": "relu",
                            "use_bias": true,
                            "kernel_initializer": {
                                "module": "keras.initializers",
                                "class_name": "GlorotUniform",
                                "config": { "seed": null },
                                "registered_name": null
                            },
                            "bias_initializer": {
                                "module": "keras.initializers",
                                "class_name": "Zeros",
                                "config": {},
                                "registered_name": null
                            },
                            "kernel_regularizer": {
                                "module": "keras.regularizers",
                                "class_name": "L2",
                                "config": { "l2": 9.999999747378752e-5 },
                                "registered_name": null
                            },
                            "bias_regularizer": null,
                            "activity_regularizer": null,
                            "kernel_constraint": null,
                            "bias_constraint": null
                        },
                        "name": "conv2d_18",
                        "inbound_nodes": [[["conv2d_17", 0, 0, {}]]]
                    },
                    {
                        "class_name": "UpSampling2D",
                        "config": {
                            "name": "up_sampling2d_2",
                            "trainable": true,
                            "dtype": "float32",
                            "size": [2, 2],
                            "data_format": "channels_last",
                            "interpolation": "nearest"
                        },
                        "name": "up_sampling2d_2",
                        "inbound_nodes": [[["conv2d_18", 0, 0, {}]]]
                    },
                    {
                        "class_name": "Concatenate",
                        "config": {
                            "name": "concatenate_2",
                            "trainable": true,
                            "dtype": "float32",
                            "axis": -1
                        },
                        "name": "concatenate_2",
                        "inbound_nodes": [
                            [
                                ["up_sampling2d_2", 0, 0, {}],
                                ["activation_3", 0, 0, {}]
                            ]
                        ]
                    },
                    {
                        "class_name": "Conv2D",
                        "config": {
                            "name": "conv2d_19",
                            "trainable": true,
                            "dtype": "float32",
                            "filters": 128,
                            "kernel_size": [3, 3],
                            "strides": [1, 1],
                            "padding": "same",
                            "data_format": "channels_last",
                            "dilation_rate": [1, 1],
                            "groups": 1,
                            "activation": "relu",
                            "use_bias": true,
                            "kernel_initializer": {
                                "module": "keras.initializers",
                                "class_name": "GlorotUniform",
                                "config": { "seed": null },
                                "registered_name": null
                            },
                            "bias_initializer": {
                                "module": "keras.initializers",
                                "class_name": "Zeros",
                                "config": {},
                                "registered_name": null
                            },
                            "kernel_regularizer": {
                                "module": "keras.regularizers",
                                "class_name": "L2",
                                "config": { "l2": 9.999999747378752e-5 },
                                "registered_name": null
                            },
                            "bias_regularizer": null,
                            "activity_regularizer": null,
                            "kernel_constraint": null,
                            "bias_constraint": null
                        },
                        "name": "conv2d_19",
                        "inbound_nodes": [[["concatenate_2", 0, 0, {}]]]
                    },
                    {
                        "class_name": "Conv2D",
                        "config": {
                            "name": "conv2d_20",
                            "trainable": true,
                            "dtype": "float32",
                            "filters": 128,
                            "kernel_size": [3, 3],
                            "strides": [1, 1],
                            "padding": "same",
                            "data_format": "channels_last",
                            "dilation_rate": [1, 1],
                            "groups": 1,
                            "activation": "relu",
                            "use_bias": true,
                            "kernel_initializer": {
                                "module": "keras.initializers",
                                "class_name": "GlorotUniform",
                                "config": { "seed": null },
                                "registered_name": null
                            },
                            "bias_initializer": {
                                "module": "keras.initializers",
                                "class_name": "Zeros",
                                "config": {},
                                "registered_name": null
                            },
                            "kernel_regularizer": {
                                "module": "keras.regularizers",
                                "class_name": "L2",
                                "config": { "l2": 9.999999747378752e-5 },
                                "registered_name": null
                            },
                            "bias_regularizer": null,
                            "activity_regularizer": null,
                            "kernel_constraint": null,
                            "bias_constraint": null
                        },
                        "name": "conv2d_20",
                        "inbound_nodes": [[["conv2d_19", 0, 0, {}]]]
                    },
                    {
                        "class_name": "UpSampling2D",
                        "config": {
                            "name": "up_sampling2d_3",
                            "trainable": true,
                            "dtype": "float32",
                            "size": [2, 2],
                            "data_format": "channels_last",
                            "interpolation": "nearest"
                        },
                        "name": "up_sampling2d_3",
                        "inbound_nodes": [[["conv2d_20", 0, 0, {}]]]
                    },
                    {
                        "class_name": "Concatenate",
                        "config": {
                            "name": "concatenate_3",
                            "trainable": true,
                            "dtype": "float32",
                            "axis": -1
                        },
                        "name": "concatenate_3",
                        "inbound_nodes": [
                            [
                                ["up_sampling2d_3", 0, 0, {}],
                                ["activation_1", 0, 0, {}]
                            ]
                        ]
                    },
                    {
                        "class_name": "Conv2D",
                        "config": {
                            "name": "conv2d_21",
                            "trainable": true,
                            "dtype": "float32",
                            "filters": 64,
                            "kernel_size": [3, 3],
                            "strides": [1, 1],
                            "padding": "same",
                            "data_format": "channels_last",
                            "dilation_rate": [1, 1],
                            "groups": 1,
                            "activation": "relu",
                            "use_bias": true,
                            "kernel_initializer": {
                                "module": "keras.initializers",
                                "class_name": "GlorotUniform",
                                "config": { "seed": null },
                                "registered_name": null
                            },
                            "bias_initializer": {
                                "module": "keras.initializers",
                                "class_name": "Zeros",
                                "config": {},
                                "registered_name": null
                            },
                            "kernel_regularizer": {
                                "module": "keras.regularizers",
                                "class_name": "L2",
                                "config": { "l2": 9.999999747378752e-5 },
                                "registered_name": null
                            },
                            "bias_regularizer": null,
                            "activity_regularizer": null,
                            "kernel_constraint": null,
                            "bias_constraint": null
                        },
                        "name": "conv2d_21",
                        "inbound_nodes": [[["concatenate_3", 0, 0, {}]]]
                    },
                    {
                        "class_name": "Conv2D",
                        "config": {
                            "name": "conv2d_22",
                            "trainable": true,
                            "dtype": "float32",
                            "filters": 64,
                            "kernel_size": [3, 3],
                            "strides": [1, 1],
                            "padding": "same",
                            "data_format": "channels_last",
                            "dilation_rate": [1, 1],
                            "groups": 1,
                            "activation": "relu",
                            "use_bias": true,
                            "kernel_initializer": {
                                "module": "keras.initializers",
                                "class_name": "GlorotUniform",
                                "config": { "seed": null },
                                "registered_name": null
                            },
                            "bias_initializer": {
                                "module": "keras.initializers",
                                "class_name": "Zeros",
                                "config": {},
                                "registered_name": null
                            },
                            "kernel_regularizer": {
                                "module": "keras.regularizers",
                                "class_name": "L2",
                                "config": { "l2": 9.999999747378752e-5 },
                                "registered_name": null
                            },
                            "bias_regularizer": null,
                            "activity_regularizer": null,
                            "kernel_constraint": null,
                            "bias_constraint": null
                        },
                        "name": "conv2d_22",
                        "inbound_nodes": [[["conv2d_21", 0, 0, {}]]]
                    },
                    {
                        "class_name": "Conv2D",
                        "config": {
                            "name": "conv2d_23",
                            "trainable": true,
                            "dtype": "float32",
                            "filters": 4,
                            "kernel_size": [1, 1],
                            "strides": [1, 1],
                            "padding": "valid",
                            "data_format": "channels_last",
                            "dilation_rate": [1, 1],
                            "groups": 1,
                            "activation": "softmax",
                            "use_bias": true,
                            "kernel_initializer": {
                                "module": "keras.initializers",
                                "class_name": "GlorotUniform",
                                "config": { "seed": null },
                                "registered_name": null
                            },
                            "bias_initializer": {
                                "module": "keras.initializers",
                                "class_name": "Zeros",
                                "config": {},
                                "registered_name": null
                            },
                            "kernel_regularizer": null,
                            "bias_regularizer": null,
                            "activity_regularizer": null,
                            "kernel_constraint": null,
                            "bias_constraint": null
                        },
                        "name": "conv2d_23",
                        "inbound_nodes": [[["conv2d_22", 0, 0, {}]]]
                    }
                ],
                "input_layers": [["input_1", 0, 0]],
                "output_layers": [["conv2d_23", 0, 0]]
            }
        },
        "training_config": {
            "loss": "categorical_crossentropy",
            "metrics": [
                [
                    {
                        "class_name": "MeanMetricWrapper",
                        "config": {
                            "name": "accuracy",
                            "dtype": "float32",
                            "fn": "categorical_accuracy"
                        }
                    },
                    {
                        "class_name": "MeanMetricWrapper",
                        "config": {
                            "name": "dice_coef",
                            "dtype": "float32",
                            "fn": "dice_coef"
                        }
                    },
                    {
                        "class_name": "MeanMetricWrapper",
                        "config": {
                            "name": "precision",
                            "dtype": "float32",
                            "fn": "precision"
                        }
                    },
                    {
                        "class_name": "MeanMetricWrapper",
                        "config": {
                            "name": "sensitivity",
                            "dtype": "float32",
                            "fn": "sensitivity"
                        }
                    },
                    {
                        "class_name": "MeanMetricWrapper",
                        "config": {
                            "name": "specificity",
                            "dtype": "float32",
                            "fn": "specificity"
                        }
                    },
                    {
                        "class_name": "MeanMetricWrapper",
                        "config": {
                            "name": "dice_coef_necrotic",
                            "dtype": "float32",
                            "fn": "dice_coef_necrotic"
                        }
                    },
                    {
                        "class_name": "MeanMetricWrapper",
                        "config": {
                            "name": "dice_coef_edema",
                            "dtype": "float32",
                            "fn": "dice_coef_edema"
                        }
                    },
                    {
                        "class_name": "MeanMetricWrapper",
                        "config": {
                            "name": "dice_coef_enhancing",
                            "dtype": "float32",
                            "fn": "dice_coef_enhancing"
                        }
                    }
                ]
            ],
            "weighted_metrics": null,
            "loss_weights": null,
            "optimizer_config": {
                "class_name": "Adam",
                "config": {
                    "name": "Adam",
                    "learning_rate": 9.999999747378752e-6,
                    "decay": 0.0,
                    "beta_1": 0.8999999761581421,
                    "beta_2": 0.9990000128746033,
                    "epsilon": 1e-7,
                    "amsgrad": false
                }
            }
        }
    },
    "weightsManifest": [
        {
            "paths": [
                "group1-shard1of31.bin",
                "group1-shard2of31.bin",
                "group1-shard3of31.bin",
                "group1-shard4of31.bin",
                "group1-shard5of31.bin",
                "group1-shard6of31.bin"
            ],
            "weights": [
                {
                    "name": "batch_normalization/gamma",
                    "shape": [64],
                    "dtype": "float32"
                },
                {
                    "name": "batch_normalization/beta",
                    "shape": [64],
                    "dtype": "float32"
                },
                {
                    "name": "batch_normalization/moving_mean",
                    "shape": [64],
                    "dtype": "float32"
                },
                {
                    "name": "batch_normalization/moving_variance",
                    "shape": [64],
                    "dtype": "float32"
                },
                {
                    "name": "batch_normalization_1/gamma",
                    "shape": [64],
                    "dtype": "float32"
                },
                {
                    "name": "batch_normalization_1/beta",
                    "shape": [64],
                    "dtype": "float32"
                },
                {
                    "name": "batch_normalization_1/moving_mean",
                    "shape": [64],
                    "dtype": "float32"
                },
                {
                    "name": "batch_normalization_1/moving_variance",
                    "shape": [64],
                    "dtype": "float32"
                },
                {
                    "name": "batch_normalization_10/gamma",
                    "shape": [512],
                    "dtype": "float32"
                },
                {
                    "name": "batch_normalization_10/beta",
                    "shape": [512],
                    "dtype": "float32"
                },
                {
                    "name": "batch_normalization_10/moving_mean",
                    "shape": [512],
                    "dtype": "float32"
                },
                {
                    "name": "batch_normalization_10/moving_variance",
                    "shape": [512],
                    "dtype": "float32"
                },
                {
                    "name": "batch_normalization_11/gamma",
                    "shape": [512],
                    "dtype": "float32"
                },
                {
                    "name": "batch_normalization_11/beta",
                    "shape": [512],
                    "dtype": "float32"
                },
                {
                    "name": "batch_normalization_11/moving_mean",
                    "shape": [512],
                    "dtype": "float32"
                },
                {
                    "name": "batch_normalization_11/moving_variance",
                    "shape": [512],
                    "dtype": "float32"
                },
                {
                    "name": "batch_normalization_12/gamma",
                    "shape": [1024],
                    "dtype": "float32"
                },
                {
                    "name": "batch_normalization_12/beta",
                    "shape": [1024],
                    "dtype": "float32"
                },
                {
                    "name": "batch_normalization_12/moving_mean",
                    "shape": [1024],
                    "dtype": "float32"
                },
                {
                    "name": "batch_normalization_12/moving_variance",
                    "shape": [1024],
                    "dtype": "float32"
                },
                {
                    "name": "batch_normalization_13/gamma",
                    "shape": [1024],
                    "dtype": "float32"
                },
                {
                    "name": "batch_normalization_13/beta",
                    "shape": [1024],
                    "dtype": "float32"
                },
                {
                    "name": "batch_normalization_13/moving_mean",
                    "shape": [1024],
                    "dtype": "float32"
                },
                {
                    "name": "batch_normalization_13/moving_variance",
                    "shape": [1024],
                    "dtype": "float32"
                },
                {
                    "name": "batch_normalization_14/gamma",
                    "shape": [1024],
                    "dtype": "float32"
                },
                {
                    "name": "batch_normalization_14/beta",
                    "shape": [1024],
                    "dtype": "float32"
                },
                {
                    "name": "batch_normalization_14/moving_mean",
                    "shape": [1024],
                    "dtype": "float32"
                },
                {
                    "name": "batch_normalization_14/moving_variance",
                    "shape": [1024],
                    "dtype": "float32"
                },
                {
                    "name": "batch_normalization_2/gamma",
                    "shape": [64],
                    "dtype": "float32"
                },
                {
                    "name": "batch_normalization_2/beta",
                    "shape": [64],
                    "dtype": "float32"
                },
                {
                    "name": "batch_normalization_2/moving_mean",
                    "shape": [64],
                    "dtype": "float32"
                },
                {
                    "name": "batch_normalization_2/moving_variance",
                    "shape": [64],
                    "dtype": "float32"
                },
                {
                    "name": "batch_normalization_3/gamma",
                    "shape": [128],
                    "dtype": "float32"
                },
                {
                    "name": "batch_normalization_3/beta",
                    "shape": [128],
                    "dtype": "float32"
                },
                {
                    "name": "batch_normalization_3/moving_mean",
                    "shape": [128],
                    "dtype": "float32"
                },
                {
                    "name": "batch_normalization_3/moving_variance",
                    "shape": [128],
                    "dtype": "float32"
                },
                {
                    "name": "batch_normalization_4/gamma",
                    "shape": [128],
                    "dtype": "float32"
                },
                {
                    "name": "batch_normalization_4/beta",
                    "shape": [128],
                    "dtype": "float32"
                },
                {
                    "name": "batch_normalization_4/moving_mean",
                    "shape": [128],
                    "dtype": "float32"
                },
                {
                    "name": "batch_normalization_4/moving_variance",
                    "shape": [128],
                    "dtype": "float32"
                },
                {
                    "name": "batch_normalization_5/gamma",
                    "shape": [128],
                    "dtype": "float32"
                },
                {
                    "name": "batch_normalization_5/beta",
                    "shape": [128],
                    "dtype": "float32"
                },
                {
                    "name": "batch_normalization_5/moving_mean",
                    "shape": [128],
                    "dtype": "float32"
                },
                {
                    "name": "batch_normalization_5/moving_variance",
                    "shape": [128],
                    "dtype": "float32"
                },
                {
                    "name": "batch_normalization_6/gamma",
                    "shape": [256],
                    "dtype": "float32"
                },
                {
                    "name": "batch_normalization_6/beta",
                    "shape": [256],
                    "dtype": "float32"
                },
                {
                    "name": "batch_normalization_6/moving_mean",
                    "shape": [256],
                    "dtype": "float32"
                },
                {
                    "name": "batch_normalization_6/moving_variance",
                    "shape": [256],
                    "dtype": "float32"
                },
                {
                    "name": "batch_normalization_7/gamma",
                    "shape": [256],
                    "dtype": "float32"
                },
                {
                    "name": "batch_normalization_7/beta",
                    "shape": [256],
                    "dtype": "float32"
                },
                {
                    "name": "batch_normalization_7/moving_mean",
                    "shape": [256],
                    "dtype": "float32"
                },
                {
                    "name": "batch_normalization_7/moving_variance",
                    "shape": [256],
                    "dtype": "float32"
                },
                {
                    "name": "batch_normalization_8/gamma",
                    "shape": [256],
                    "dtype": "float32"
                },
                {
                    "name": "batch_normalization_8/beta",
                    "shape": [256],
                    "dtype": "float32"
                },
                {
                    "name": "batch_normalization_8/moving_mean",
                    "shape": [256],
                    "dtype": "float32"
                },
                {
                    "name": "batch_normalization_8/moving_variance",
                    "shape": [256],
                    "dtype": "float32"
                },
                {
                    "name": "batch_normalization_9/gamma",
                    "shape": [512],
                    "dtype": "float32"
                },
                {
                    "name": "batch_normalization_9/beta",
                    "shape": [512],
                    "dtype": "float32"
                },
                {
                    "name": "batch_normalization_9/moving_mean",
                    "shape": [512],
                    "dtype": "float32"
                },
                {
                    "name": "batch_normalization_9/moving_variance",
                    "shape": [512],
                    "dtype": "float32"
                },
                {
                    "name": "conv2d/kernel",
                    "shape": [3, 3, 2, 64],
                    "dtype": "float32"
                },
                { "name": "conv2d/bias", "shape": [64], "dtype": "float32" },
                {
                    "name": "conv2d_1/kernel",
                    "shape": [3, 3, 64, 64],
                    "dtype": "float32"
                },
                { "name": "conv2d_1/bias", "shape": [64], "dtype": "float32" },
                {
                    "name": "conv2d_10/kernel",
                    "shape": [3, 3, 512, 512],
                    "dtype": "float32"
                },
                {
                    "name": "conv2d_10/bias",
                    "shape": [512],
                    "dtype": "float32"
                },
                {
                    "name": "conv2d_11/kernel",
                    "shape": [1, 1, 256, 512],
                    "dtype": "float32"
                },
                {
                    "name": "conv2d_11/bias",
                    "shape": [512],
                    "dtype": "float32"
                },
                {
                    "name": "conv2d_12/kernel",
                    "shape": [3, 3, 512, 1024],
                    "dtype": "float32"
                },
                {
                    "name": "conv2d_12/bias",
                    "shape": [1024],
                    "dtype": "float32"
                },
                {
                    "name": "conv2d_13/kernel",
                    "shape": [3, 3, 1024, 1024],
                    "dtype": "float32"
                },
                {
                    "name": "conv2d_13/bias",
                    "shape": [1024],
                    "dtype": "float32"
                },
                {
                    "name": "conv2d_14/kernel",
                    "shape": [1, 1, 512, 1024],
                    "dtype": "float32"
                },
                {
                    "name": "conv2d_14/bias",
                    "shape": [1024],
                    "dtype": "float32"
                },
                {
                    "name": "conv2d_15/kernel",
                    "shape": [3, 3, 1536, 512],
                    "dtype": "float32"
                },
                {
                    "name": "conv2d_15/bias",
                    "shape": [512],
                    "dtype": "float32"
                },
                {
                    "name": "conv2d_16/kernel",
                    "shape": [3, 3, 512, 512],
                    "dtype": "float32"
                },
                {
                    "name": "conv2d_16/bias",
                    "shape": [512],
                    "dtype": "float32"
                },
                {
                    "name": "conv2d_17/kernel",
                    "shape": [3, 3, 768, 256],
                    "dtype": "float32"
                },
                {
                    "name": "conv2d_17/bias",
                    "shape": [256],
                    "dtype": "float32"
                },
                {
                    "name": "conv2d_18/kernel",
                    "shape": [3, 3, 256, 256],
                    "dtype": "float32"
                },
                {
                    "name": "conv2d_18/bias",
                    "shape": [256],
                    "dtype": "float32"
                },
                {
                    "name": "conv2d_19/kernel",
                    "shape": [3, 3, 384, 128],
                    "dtype": "float32"
                },
                {
                    "name": "conv2d_19/bias",
                    "shape": [128],
                    "dtype": "float32"
                },
                {
                    "name": "conv2d_2/kernel",
                    "shape": [1, 1, 2, 64],
                    "dtype": "float32"
                },
                { "name": "conv2d_2/bias", "shape": [64], "dtype": "float32" },
                {
                    "name": "conv2d_20/kernel",
                    "shape": [3, 3, 128, 128],
                    "dtype": "float32"
                },
                {
                    "name": "conv2d_20/bias",
                    "shape": [128],
                    "dtype": "float32"
                },
                {
                    "name": "conv2d_21/kernel",
                    "shape": [3, 3, 192, 64],
                    "dtype": "float32"
                },
                { "name": "conv2d_21/bias", "shape": [64], "dtype": "float32" },
                {
                    "name": "conv2d_22/kernel",
                    "shape": [3, 3, 64, 64],
                    "dtype": "float32"
                },
                { "name": "conv2d_22/bias", "shape": [64], "dtype": "float32" },
                {
                    "name": "conv2d_23/kernel",
                    "shape": [1, 1, 64, 4],
                    "dtype": "float32"
                },
                { "name": "conv2d_23/bias", "shape": [4], "dtype": "float32" },
                {
                    "name": "conv2d_3/kernel",
                    "shape": [3, 3, 64, 128],
                    "dtype": "float32"
                },
                { "name": "conv2d_3/bias", "shape": [128], "dtype": "float32" },
                {
                    "name": "conv2d_4/kernel",
                    "shape": [3, 3, 128, 128],
                    "dtype": "float32"
                },
                { "name": "conv2d_4/bias", "shape": [128], "dtype": "float32" },
                {
                    "name": "conv2d_5/kernel",
                    "shape": [1, 1, 64, 128],
                    "dtype": "float32"
                },
                { "name": "conv2d_5/bias", "shape": [128], "dtype": "float32" },
                {
                    "name": "conv2d_6/kernel",
                    "shape": [3, 3, 128, 256],
                    "dtype": "float32"
                },
                { "name": "conv2d_6/bias", "shape": [256], "dtype": "float32" },
                {
                    "name": "conv2d_7/kernel",
                    "shape": [3, 3, 256, 256],
                    "dtype": "float32"
                },
                { "name": "conv2d_7/bias", "shape": [256], "dtype": "float32" },
                {
                    "name": "conv2d_8/kernel",
                    "shape": [1, 1, 128, 256],
                    "dtype": "float32"
                },
                { "name": "conv2d_8/bias", "shape": [256], "dtype": "float32" },
                {
                    "name": "conv2d_9/kernel",
                    "shape": [3, 3, 256, 512],
                    "dtype": "float32"
                },
                { "name": "conv2d_9/bias", "shape": [512], "dtype": "float32" }
            ]
        }
    ]
}
